…
name: ctc.ctc_lo.bias, dtype: torch.float32, device: cpu, trainable: True, shape: torch.Size([25055]), numel: 25055
name: embed.weight, dtype: torch.float32, device: cpu, trainable: True, shape: torch.Size([16, 560]), numel: 8960
[2024-11-24 21:48:22,442][root][INFO] - Model structure:
SenseVoiceSmall(
  (specaug): SpecAugLFR(
    (freq_mask): MaskAlongAxisLFR(mask_width_range=[0, 30], num_mask=1, axis=freq)
    (time_mask): MaskAlongAxisLFR(mask_width_range=[0, 12], num_mask=1, axis=time)
  )
  (encoder): SenseVoiceEncoderSmall(
    (embed): SinusoidalPositionEncoder()
    (encoders0): ModuleList(
      (0): EncoderLayerSANM(
        (self_attn): MultiHeadedAttentionSANM(
          (linear_out): Linear(in_features=512, out_features=512, bias=True)
          (linear_q_k_v): Linear(in_features=560, out_features=1536, bias=True)
          (dropout): Dropout(p=0.1, inplace=False)
          (fsmn_block): Conv1d(512, 512, kernel_size=(11,), stride=(1,), groups=512, bias=False)
          (pad_fn): ConstantPad1d(padding=(5, 5), value=0.0)
        )
        (feed_forward): PositionwiseFeedForward(
          (w_1): Linear(in_features=512, out_features=2048, bias=True)
          (w_2): Linear(in_features=2048, out_features=512, bias=True)
          (dropout): Dropout(p=0.1, inplace=False)
          (activation): ReLU()
        )
        (norm1): LayerNorm((560,), eps=1e-05, elementwise_affine=True)
        (norm2): LayerNorm((512,), eps=1e-05, elementwise_affine=True)
        (dropout): Dropout(p=0.1, inplace=False)
      )
    )
    (encoders): ModuleList(
      (0-48): 49 x EncoderLayerSANM(
        (self_attn): MultiHeadedAttentionSANM(
          (linear_out): Linear(in_features=512, out_features=512, bias=True)
          (linear_q_k_v): Linear(in_features=512, out_features=1536, bias=True)
          (dropout): Dropout(p=0.1, inplace=False)
          (fsmn_block): Conv1d(512, 512, kernel_size=(11,), stride=(1,), groups=512, bias=False)
          (pad_fn): ConstantPad1d(padding=(5, 5), value=0.0)
        )
        (feed_forward): PositionwiseFeedForward(
          (w_1): Linear(in_features=512, out_features=2048, bias=True)
          (w_2): Linear(in_features=2048, out_features=512, bias=True)
          (dropout): Dropout(p=0.1, inplace=False)
          (activation): ReLU()
        )
        (norm1): LayerNorm((512,), eps=1e-05, elementwise_affine=True)
        (norm2): LayerNorm((512,), eps=1e-05, elementwise_affine=True)
        (dropout): Dropout(p=0.1, inplace=False)
      )
    )
    (tp_encoders): ModuleList(
      (0-19): 20 x EncoderLayerSANM(
        (self_attn): MultiHeadedAttentionSANM(
          (linear_out): Linear(in_features=512, out_features=512, bias=True)
          (linear_q_k_v): Linear(in_features=512, out_features=1536, bias=True)
          (dropout): Dropout(p=0.1, inplace=False)
          (fsmn_block): Conv1d(512, 512, kernel_size=(11,), stride=(1,), groups=512, bias=False)
          (pad_fn): ConstantPad1d(padding=(5, 5), value=0.0)
        )
        (feed_forward): PositionwiseFeedForward(
          (w_1): Linear(in_features=512, out_features=2048, bias=True)
          (w_2): Linear(in_features=2048, out_features=512, bias=True)
          (dropout): Dropout(p=0.1, inplace=False)
          (activation): ReLU()
        )
        (norm1): LayerNorm((512,), eps=1e-05, elementwise_affine=True)
        (norm2): LayerNorm((512,), eps=1e-05, elementwise_affine=True)
        (dropout): Dropout(p=0.1, inplace=False)
      )
    )
    (after_norm): LayerNorm((512,), eps=1e-05, elementwise_affine=True)
    (tp_norm): LayerNorm((512,), eps=1e-05, elementwise_affine=True)
  )
  (ctc): CTC(
    (ctc_lo): Linear(in_features=512, out_features=25055, bias=True)
    (ctc_loss): CTCLoss()
  )
  (embed): Embedding(16, 560)
  (criterion_att): LabelSmoothingLoss(
    (criterion): KLDivLoss()
  )
)

Model summary:
    Class Name: SenseVoiceSmall
    Total Number of model parameters: 234.00 M
    Number of trainable parameters: 234.00 M (100.0%)
    Type: torch.float32
[2024-11-24 21:48:22,552][root][INFO] - scope_map: ['module.', 'None']
[2024-11-24 21:48:22,553][root][INFO] - excludes: None
[2024-11-24 21:48:22,716][root][INFO] - Loading ckpt: /data/guyf/.cache/modelscope/hub/iic/SenseVoiceSmall/model.pt, status: <All keys matched successfully>
…
